HER_DRLib_Net_Reload/2022-08-12_HER_mpi1_random_TD3Torch_FetchPush-v1/2022-08-12_15-57-53-HER_mpi1_random_TD3Torch_FetchPush-v1_s300/actor.pth (torch, 899345 bytes, 16 tensors)

pi.pi.0.weight f4 [256, 28]
000000 62 f0 08 3f ea 6e 11 3e e6 15 d9 be 8e f4 d9 be
       0.53491795 0.14202467 -0.4239952 -0.42569393
000010 8a 13 5e 3e dc df e3 3f 32 65 00 bf 21 9b 96 be
       0.21687141 1.7802691 -0.5015441 -0.2941523
000020 3a 22 58 3f ab cf a9 3e 32 55 78 bf 8b 56 92 3c
       0.84427226 0.3316625 -0.97005 0.017863533
000030 93 ee f3 3d a6 36 52 3e 0c 61 3c bf a7 76 a0 bf
       0.11910739 0.20528659 -0.7358558 -1.253621
000040 f5 48 96 3f 51 22 59 bd 04 ec 7e bb 3e ac 2d bd
       1.1741015 -0.053011242 -0.0038898 -0.04240059
000050 2f ce 1d bf 3e 47 a1 bf e3 c4 83 3f 6d cc 30 3e
       -0.61642736 -1.2599866 1.029446 0.17265482
000060 d8 56 b7 3d 66 b0 10 3d fd b9 89 be 98 cc 4f be
       0.08952111 0.035324477 -0.2689971 -0.2029289
000070 01 8c 15 3e f9 f6 51 bd de df 07 bf aa 85 d6 3e
       0.14604189 -0.051260922 -0.5307597 0.41898853
000080 69 40 ee bf e9 59 17 bf 74 63 09 bf 4e 70 d4 bf
       -1.8613406 -0.59121567 -0.5366738 -1.6596773
000090 a9 45 9a 3e e2 ba 8f be 88 e7 08 3f f6 04 4a be
       0.3013127 -0.28072268 0.5347829 -0.19728455
0000a0 69 e1 57 be f4 fb c8 bc f8 5a 2a be cc a8 84 be
       -0.21082081 -0.024534203 -0.16636264 -0.25910032
0000b0 2e b2 84 3e 70 f7 11 bc 5c 20 46 be 68 42 da 3d
       0.2591719 -0.008909091 -0.19348282 0.10657197
0000c0 8d c3 7d be a9 8c bd be 0c 75 3b 3e 1d 35 a6 3e
       -0.24781628 -0.37021378 0.18306369 0.32462397
0000d0 34 31 42 bf c3 9e af be 9a 71 b0 3f 44 bf b0 be
       -0.7585633 -0.34300813 1.3784668 -0.34520924
0000e0 ac 5f 5e bf 1e f9 53 3f 83 6a 1a 3f d9 56 8b 3f
       -0.86864734 0.82802 0.60318774 1.0885879
0000f0 5d 98 09 bf bc 1a 1d 3f 8b d3 f1 3f 3e ef ed bf
       -0.5374811 0.6136892 1.8892683 -1.8588636
000100 99 67 4b bf ec 42 43 be 32 f4 be bc 89 48 07 3e
       -0.7945495 -0.19068497 -0.0233098 0.13211264
000110 46 bd 8f 3c 34 cf d4 3c 49 f0 87 be 56 fa 4e 3b
       0.017546307 0.025977708 -0.2655051 0.0031582317
000120 ef e5 a6 3e 57 43 0c be 73 90 7c 3d ee e5 d7 3c
       0.325973 -0.13697563 0.061661195 0.026354756
000130 0c 7d 63 be 85 af 1d bb 82 97 f1 3e b4 f3 4e be
       -0.2221567 -0.0024060917 0.47185904 -0.20210153
000140 ec ce e2 3d 1d 98 23 be 06 e6 97 bb 47 08 a3 3d
       0.110746235 -0.15975995 -0.004635575 0.07960563
000150 0f 28 6b bf b7 35 22 3f 0a 5c 43 3f b7 e7 84 bf
       -0.91858 0.6336321 0.76312315 -1.0383214
000160 0d 54 9e be e9 72 7f 3e 67 de 1d 3f 48 1c 67 bf
       -0.309235 0.24946178 0.61667484 -0.9027753
000170 08 fa f2 be 40 a6 13 bf ca 8e 53 3f 0d c8 02 3e
       -0.47456384 -0.5767555 0.82639754 0.12771626
000180 2e 75 d2 bd 91 5b 03 3e 32 13 2a 3e 18 0e 6d be
       -0.102762565 0.12827899 0.16608885 -0.23149908
000190 56 6a 49 3e 81 a7 29 3c a0 4a 40 be 3d b4 14 be
       0.1966947 0.010354877 -0.18778467 -0.1452188
0001a0 de a1 32 3d dc c4 ab be a8 24 61 3e 69 fa a8 bf
       0.0436114 -0.3354863 0.2198664 -1.3201419
0001b0 14 89 1b bf a5 a9 c0 3f dc e9 64 3d 41 1e 33 3e
       -0.6075604 1.5051771 0.05588709 0.1749201
0001c0 1c 12 66 3e 8a 1b 19 c0 21 8c b0 3f 2a b2 4e bf
       0.22467846 -2.3923059 1.3792764 -0.80740607
0001d0 e2 65 55 3f e7 52 23 3e 09 3a 2c bf f3 ab 99 40
       0.83358586 0.15949593 -0.67276055 4.80224
0001e0 53 e6 90 bf e5 f9 32 bd ba b5 5a be d8 cf 2b be
       -1.1320289 -0.04369535 -0.21358386 -0.16778505
0001f0 a8 c4 25 3e 42 20 0d 3e b9 0e 5d bd e8 b8 c4 3d
       0.161883 0.13781837 -0.05396912 0.096055806
000200 bf 43 14 be 91 bb d8 3b 26 c9 46 be bb d6 e7 3d
       -0.14478968 0.0066141565 -0.1941267 0.113202535
000210 b9 cb 8d bd 8e 6a bd bc ac cb a4 3d 6d 78 62 be
       -0.06923623 -0.023122098 0.0804666 -0.22116251
000220 99 5c d6 3c c3 07 0a 3f c6 87 ce 3e ff 90 17 be
       0.0261672 0.53918093 0.40337962 -0.14801405
000230 f6 82 16 bf 1d ce 0e 3e c8 74 2f 3e f2 f2 95 be
       -0.5879358 0.13945813 0.17134392 -0.29286915
000240 56 77 cf 3e a9 ee ce 3f 34 3d f2 3e 8d 85 81 3e
       0.40520734 1.6166583 0.4731232 0.25297204
000250 6c b0 48 3e 6e 3f 90 3e 5d be 28 be 0d 71 18 3e
       0.1959855 0.28173393 -0.16478868 0.14886875
000260 64 55 08 be 31 4c 45 bd b5 d0 ed 3e 94 55 b4 be
       -0.13313824 -0.048168365 0.46448293 -0.3522154
000270 db 44 7d 3f b0 28 e5 bd 94 18 26 3e 4a 22 8d 3d
       0.9893319 -0.11189401 0.16220313 0.06891306
000280 9d 7e 23 3f 1f 2d ff be 6f 8c 30 3f ac e6 9f bc
       0.6386507 -0.49839112 0.68964285 -0.019519173
000290 e0 27 e9 bd 30 57 e7 3e e2 48 ff be fb d8 92 bd
       -0.11384559 0.45183706 -0.49860293 -0.07170292
0002a0 90 31 06 3e 6a 7c 0e 3c a9 75 9b 3f 37 26 ad 3e
       0.13104844 0.008696655 1.2145282 0.33818218
0002b0 be 4b 43 be b1 be 3c bf a5 b8 57 3f cb c1 26 be
       -0.19071862 -0.7372847 0.8426612 -0.16284864
0002c0 8f 2a e6 bf c3 f3 2c bf 44 39 c2 3f 35 a5 97 bc
       -1.7981738 -0.6755945 1.5173726 -0.018511394
0002d0 b5 d4 3a bf 86 d2 97 be cc 63 71 3a 96 ea 2a be
       -0.72980815 -0.29652804 0.00092082913 -0.1669105
0002e0 b6 34 98 3b 20 d6 a5 3e 48 4d 9b 3d cf 15 b3 bc
       0.0046449555 0.32389927 0.075830996 -0.021860985
0002f0 69 63 2a bc 40 3d 78 be 9e 47 b6 3e 0b ee 87 3f
       -0.010399678 -0.24242115 0.35601515 1.061952
000300 7d 9f a4 3f 45 2e 93 3f b0 93 13 bf 8c 21 5b 3f
       1.2861172 1.1498495 -0.5764723 0.85598063
000310 80 ae da 3d 17 5e d8 bf c8 fe 84 be d9 d1 53 3f
       0.106778145 -1.6903714 -0.25975633 0.8274208
000320 ba b9 4a 3f da 05 66 3f 42 f7 50 3f 90 20 6d 40
       0.79189646 0.8985268 0.81627285 3.7051125
000330 1d 58 ba 3e dd 72 0d c0 bd 99 1a 40 1c 80 8c bd
       0.3639535 -2.2101357 2.4156334 -0.068603724
000340 81 d4 0f 3e 42 d0 59 bd f0 a3 a8 3e 2c c9 5d 3f
       0.14045908 -0.053177126 0.32937574 0.8663509
000350 85 35 5f 3e 40 56 7a 3d b2 1a 15 3e 7d 0e 9e bd
       0.2179776 0.06111741 0.14560965 -0.07717607
000360 f9 48 cf 3d e3 4f 2c 3f bd f6 8a 3e bb 6a 95 3e
       0.1012134 0.673094 0.2714137 0.2918299
000370 32 c8 0a 3e 1f 3d 71 bf 04 f2 4d 3d 87 a0 89 3e
       0.13552931 -0.9423389 0.050279632 0.26880285
000380 eb fa 05 bf 1b 51 52 be ab 5e d2 3e 1d 21 38 bf
       -0.52335995 -0.20538752 0.4108785 -0.71925527
000390 ac fe 3f be 46 76 6b 3f b0 91 40 bf 40 16 6e 3f
       -0.18749493 0.91977346 -0.752223 0.930027
0003a0 38 c9 33 be df 85 65 be b7 9f e5 bd b3 b3 8a 3d
       -0.17557228 -0.22414349 -0.11212104 0.06772556
0003b0 5a 76 2b bd 4f 9d 19 be f2 fe b1 be f0 ce df be
       -0.041860916 -0.15001415 -0.3476482 -0.43712568
0003c0 13 e6 5e 3e 29 90 f9 3d 95 39 e0 be 76 aa 78 be
       0.21767454 0.121856995 -0.43793932 -0.24283776
0003d0 a1 21 e8 be 90 72 f5 bd fa b4 cc 3e 90 30 56 bd
       -0.45338157 -0.11984742 0.39981824 -0.052292407
0003e0 ca aa 0c be aa 25 f2 bc d5 70 16 bc e6 ba c9 be
       -0.13737026 -0.029558975 -0.009182175 -0.39400405
0003f0 5b 4b 99 3f 02 73 83 3f b7 47 09 be 83 27 ed bf
       1.1976122 1.0269473 -0.13406263 -1.8527683

pi.pi.0.bias f4 [256]
000000 30 fd 15 c0 65 8a c3 bf fa 5f 96 3f 50 3c e9 bf
       -2.3435783 -1.527661 1.174804 -1.8221531
000010 fb dd cf be de 2d c4 bf d6 6f 4d c0 a2 d4 ea bf
       -0.40599045 -1.5326498 -3.209951 -1.834614
000020 fc 8b 1a c0 ee 6a 47 bf 1b 86 9b 3e 24 1b eb bf
       -2.414794 -0.77897537 0.30375752 -1.8367658
000030 0c 36 ee bf cb ec 20 c0 b0 77 58 bf 80 d5 03 c0
       -1.8610244 -2.5144527 -0.8455763 -2.059906
000040 b7 16 63 bf b8 16 c6 bf a2 76 39 c0 f5 3c 5e be
       -0.88706535 -1.5475683 -2.8978658 -0.21702941
000050 d0 d6 ab bf 61 61 e2 bf 1e c8 b3 bf b9 44 27 c0
       -1.342493 -1.7685968 -1.4045446 -2.6135695
000060 58 77 ae bf a7 4b c5 3c d5 f7 8b 3e 64 1b bd bf
       -1.3630171 0.024083925 0.27337518 -1.4773984
000070 8c 40 3b 3f 4b 1d 17 bf 62 e7 e2 bf 64 e1 0c c0
       0.73145366 -0.5902907 -1.7726862 -2.2012568
000080 23 87 d5 bf 6a fc 17 bf 97 2d a9 bf 4d 83 d5 3e
       -1.6681865 -0.5936953 -1.3217038 0.41701737
000090 09 be d4 bf 23 6f 14 c0 77 dc 2b c0 b9 76 92 bf
       -1.6620494 -2.3192832 -2.685331 -1.1442481
0000a0 8c c9 0a c0 c8 88 be 3f 3c 54 8b bf 2a e5 21 c0
       -2.1685514 1.4885492 -1.0885081 -2.529612
0000b0 70 66 c4 bf eb 24 be bf 93 52 e2 bf e8 0e 04 c0
       -1.5343761 -1.4855016 -1.768145 -2.0634098
0000c0 a3 d3 0f c0 1b bd fa bf 8a f2 24 c0 27 dc 48 bf
       -2.2472923 -1.958896 -2.5773034 -0.78460926
0000d0 d2 9e 50 3f 47 8e f1 bf ae f4 ff bd 4b 8e b0 bf
       0.8149234 -1.8871545 -0.12497841 -1.3793424
0000e0 50 91 03 c0 be 37 73 bf f2 4c 9e bf 25 c8 d9 bf
       -2.0557442 -0.9500693 -1.2367232 -1.7014204
0000f0 8a ee 6d bc f5 f4 e4 bf 93 5f 03 c0 5a b7 10 c0
       -0.014522204 -1.7887255 -2.0527084 -2.261191
000100 98 cb 4f bf f5 3b 00 c0 bc b1 d5 bf 74 f9 bd bf
       -0.81170034 -2.0036595 -1.6694865 -1.4841752
000110 5d 13 fc bf 47 6f 2f bf ae 03 81 bd 55 12 03 c0
       -1.9693409 -0.6852917 -0.0629953 -2.047994
000120 3a 3f 2f c0 f8 97 c4 bf 1b 24 ba 3f c4 7f 6a bf
       -2.738234 -1.5358877 1.4542269 -0.91601205
000130 37 a6 16 3e 62 25 12 c0 14 ea d4 bf 96 a5 03 c0
       0.14711843 -2.2835317 -1.6633935 -2.0569816
000140 21 05 db be 9a f5 3f bf 35 5b ad 3f d1 04 ad 3f
       -0.4277735 -0.74984133 1.3543459 1.3517095
000150 21 ea 77 3d 20 21 dc bf 6a 54 f4 bf 19 e0 14 c0
       0.060526017 -1.7197609 -1.9088261 -2.3261778
000160 a0 9e e7 bf 4c 8a 94 be c6 87 85 bf 0a 1f 06 c0
       -1.8095284 -0.29011762 -1.043206 -2.0956445
000170 76 9e 0d c0 d5 9e fb bf be f1 da bf 09 f0 bd be
       -2.2127967 -1.9657847 -1.7105024 -0.37097195
000180 62 2f 86 3f a6 01 f0 bf a8 41 74 bf 57 0a 05 c0
       1.048321 -1.8750503 -0.95412683 -2.078756
000190 a3 51 c3 bf 0c d5 d3 be 7a 86 d5 bf 3f b3 60 3f
       -1.5259289 -0.4137348 -1.6681664 0.8777351
0001a0 fd 8b 34 c0 7c 21 50 c0 03 79 f1 bf b1 c3 cc bf
       -2.8210442 -3.2520437 -1.8865055 -1.599722
0001b0 04 88 a6 bf 6d be 73 bf f9 22 49 bf 55 ea 5f 3f
       -1.3010259 -0.9521244 -0.7856899 0.8746694
0001c0 0e 30 07 c0 43 d0 1e 3d 00 8a ad be e3 a1 f2 be
       -2.112308 0.038772833 -0.33894348 -0.47389135
0001d0 72 e4 d0 bf c6 38 63 3f 7a ad 22 3f 6f 83 15 c0
       -1.6319716 0.88758504 0.63545954 -2.336147
0001e0 f5 18 a8 be 15 af c6 be 1c 91 ab 3f 65 41 23 c0
       -0.3283154 -0.38805452 1.3403659 -2.5508664
0001f0 3c bb 49 bf a9 59 21 c0 8d fe 4e bf 4f a6 92 bf
       -0.7880132 -2.5210974 -0.80857164 -1.1457003
000200 ad c5 eb bf 58 c6 ff bf 18 cf 01 c0 7e 8c 1f 3f
       -1.8419701 -1.9982405 -2.028265 0.6232375
000210 a3 88 50 bf f1 78 90 bf 9b bc 34 c0 57 c8 08 c0
       -0.8145849 -1.1286908 -2.8240116 -2.1372278
000220 39 f8 c6 bf cb e3 ce bd 4d f6 0e c0 f8 7b 76 bf
       -1.5544502 -0.10102042 -2.233783 -0.9628291
000230 37 1b d6 bf 32 b8 b9 be dd cd 00 c0 e9 e7 bc bf
       -1.6727055 -0.36273342 -2.012565 -1.4758273
000240 1c d7 93 bf 2a c5 e0 bf 85 f2 24 bd 21 c4 48 3f
       -1.1550021 -1.756017 -0.040270347 0.7842427
000250 6b 3a 01 c0 39 8e 93 3e fd 39 d6 bf ad 34 5f bf
       -2.0191905 0.28819445 -1.6736447 -0.8718975
000260 1a a9 66 bf 90 ee 62 bf 3b a5 9f bf 48 0d 41 3f
       -0.9010178 -0.8864527 -1.2472299 0.7541089
000270 60 ab 46 c0 aa 97 00 c0 fa ba 9c bf 3c 01 f3 3e
       -3.10421 -2.0092568 -1.2244561 0.4746188
000280 90 04 6d bf 9d 7f 05 c0 5a ad 12 c0 97 5e de bf
       -0.92585087 -2.085914 -2.2918305 -1.7372617
000290 f2 17 24 bf 0b 04 1a c0 ce 30 09 c0 34 a7 fa bf
       -0.6409904 -2.4064968 -2.1436038 -1.9582276
0002a0 9d 92 b2 3e 34 f1 17 c0 8d ab e5 bf 0a 79 52 bb
       0.34877482 -2.3740969 -1.7942978 -0.0032115602
0002b0 6c 03 0d c0 58 e5 cf be ce 09 21 c0 9a d0 29 bf
       -2.2033339 -0.40604663 -2.5162234 -0.66333926
0002c0 5a 2f 1c c0 9b 85 40 3f fb 65 d7 3e e6 fe 23 c0
       -2.44039 0.75203866 0.42069992 -2.5624328
0002d0 5d 85 07 c0 c8 d9 dc bf ba aa 87 bf b1 85 1e c0
       -2.1175148 -1.7253962 -1.0598977 -2.4769099
0002e0 3b 8f ce bf f9 aa 10 c0 8a 96 1e c0 34 56 c8 bf
       -1.613746 -2.2604353 -2.4779382 -1.5651307
0002f0 1c 9b 09 c0 82 01 21 c0 cc eb 90 bf 0f 9b 17 40
       -2.1500921 -2.515717 -1.132196 2.368839
000300 f4 a3 07 c0 cb 09 b9 bf 48 ea 0e c0 84 ce b6 bf
       -2.119382 -1.4456114 -2.2330494 -1.4281774
000310 7b 58 af bf 14 b6 98 bf 3e 72 ef bf fc 89 bd bf
       -1.3698877 -1.1930566 -1.8706739 -1.4807734
000320 bd da 0d c0 54 11 ad bf 24 c6 ef 3e 7c 25 20 c0
       -2.2164757 -1.3520913 0.46830857 -2.5022879
000330 b7 ef d2 bf f7 46 9f bf eb d7 26 c0 ba 9f 3d c0
       -1.6479405 -1.2443532 -2.6069286 -2.962874
000340 50 67 25 c0 39 82 92 be 88 e7 01 c0 47 7b 04 bf
       -2.5844307 -0.28614977 -2.0297565 -0.51750606
000350 69 1e 2b c0 37 a0 16 c0 b0 69 db 3f 3d 86 86 3f
       -2.673731 -2.3535287 1.7141628 1.0509716
000360 e8 27 b7 bf b5 a0 2b bf c3 cc 07 c0 75 2b c3 3f
       -1.4309053 -0.67042094 -2.1218727 1.5247637
000370 af 29 9e be 79 23 a2 bf 6e f7 2b 3e ca 21 54 bf
       -0.30891177 -1.2667075 0.16793606 -0.8286406
000380 09 41 25 c0 07 87 03 c0 f6 d8 80 bf ba 8f 4c bf
       -2.5820944 -2.0551164 -1.0066211 -0.7990681
000390 d8 ef 78 bf 9f 0e b0 3f 52 dc 1f bd 66 06 22 bf
       -0.9724097 1.3754462 -0.039028473 -0.63291013
0003a0 95 53 74 3f cf bc b0 bf a4 9b b1 bf 20 75 01 c0
       0.95440036 -1.380762 -1.3875623 -2.0227737
0003b0 ce e2 25 bf 92 a5 ea bf 47 ea c5 bd fa ca f5 bf
       -0.647992 -1.8331778 -0.096638255 -1.9202569
0003c0 ad f2 85 3f 90 e8 64 3f 87 c9 9b bf 40 1c 0f bf
       1.0464684 0.8941736 -1.2170876 -0.5590248
0003d0 31 48 e2 bf 1c d4 dd bf c3 b1 4f bf ca 47 c7 bf
       -1.7678281 -1.7330356 -0.8113062 -1.5568783
0003e0 5b ca 23 bf 5d a4 17 c0 d9 cb ee 3f cc 18 8b bf
       -0.63980645 -2.369407 1.8655959 -1.0866942
0003f0 f5 e0 32 c0 2f e1 97 bf 9c eb 04 3e c8 e0 33 c0
       -2.7949803 -1.1865596 0.12980503 -2.8105946

pi.pi.2.weight f4 [256, 256]
000000 4a 87 d2 bf 18 99 95 bf 71 57 50 c0 bc 4b 0a 3f
       -1.6447537 -1.1687346 -3.255337 0.5402181
000010 70 47 13 c0 68 9c b1 bf aa 11 1d bf cf 3f 86 bf
       -2.3012352 -1.3875856 -0.6135508 -1.0488223
000020 a9 87 5d bf 95 13 0b 3f e8 6e 45 bf df 30 9c bf
       -0.86535126 0.54326755 -0.77122355 -1.2202414
000030 a1 bc 33 bf 80 01 76 bf 59 b7 ab bf e7 43 b8 bd
       -0.702097 -0.9609604 -1.3415328 -0.08997326
000040 38 73 93 3e 38 4e 21 bf f1 d7 20 3e 35 25 61 3b
       0.28798842 -0.6300998 0.15707375 0.0034354453
000050 32 90 90 3d c5 34 fa be 2c 9e 78 be f9 54 2d 3f
       0.07058753 -0.48868385 -0.24279088 0.67707783
000060 2a 9f 35 bf ef 14 ff bf 4e 72 c3 bf f1 ac a1 be
       -0.7094599 -1.9928263 -1.5269258 -0.31577256
000070 7e 78 60 bf 46 f7 b0 be fc 36 e5 bf 66 77 60 bf
       -0.87683856 -0.34563655 -1.7907405 -0.8768219
000080 cd 7a 65 be c5 3c 01 be 70 08 c7 bf fd 89 f8 3e
       -0.22410126 -0.12620838 -1.554945 0.48542777
000090 9a 8b d5 be e3 70 a5 bf 4f 1d a6 3d 12 3a 39 bf
       -0.4170807 -1.2925075 0.08111059 -0.72354233
0000a0 79 f8 b6 bf 20 e0 c9 3e 29 1c 50 bf ef 8c 7b bf
       -1.4294578 0.39428806 -0.8129297 -0.9826192
0000b0 45 d1 17 bf 7d 4e 44 be dc 97 9c bf c6 c1 47 bf
       -0.59303695 -0.19170566 -1.2233844 -0.7803005
0000c0 c7 10 67 bf 8d 6d 85 bf 74 30 82 bf e7 2e 81 bd
       -0.90259975 -1.0424057 -1.0171037 -0.06307774
0000d0 f9 1c f7 3e 6b 4f 0b bf 0b ef ac bf dd ee 94 bf
       0.48264292 -0.5441806 -1.351045 -1.1635395
0000e0 7e 53 6a 3e 24 aa ae be 60 ce 71 bf 6a 88 f0 bf
       0.22883412 -0.34114182 -0.9445553 -1.879163
0000f0 40 16 83 be 7a 9e de 3d 9d 80 ef be 94 be 73 bf
       -0.25602913 0.10870071 -0.46777812 -0.95212674
000100 e5 ea 8f bf 92 ae 55 be d7 fc 90 bf 6a 6c 3e bf
       -1.1243559 -0.20867375 -1.1327161 -0.74384177
000110 f2 41 00 c0 4a 56 3a bf 42 99 18 bf 95 3e 87 bf
       -2.004025 -0.72787917 -0.5960885 -1.0565974
000120 3f c7 09 be 24 80 a9 be 97 24 34 3f 60 1d cd 3e
       -0.13454913 -0.33105576 0.7036833 0.40061474
000130 b4 6c a9 3e 7e 19 31 bd 23 ca 80 be d1 97 ec be
       0.33090746 -0.043237202 -0.25154218 -0.46209577
000140 ae 65 74 be 99 ff 5e bf 70 7f b8 be ac 89 2a c0
       -0.23866913 -0.8710876 -0.36034727 -2.6646528
000150 26 d6 c8 3e 5d 04 c5 be 66 ce 64 bf 13 9c 17 c0
       0.39225882 -0.3847989 -0.8937744 -2.368901
000160 13 30 2b c0 54 dd 1b c0 7c 07 65 bf 36 05 c6 bf
       -2.6748092 -2.4353838 -0.89464545 -1.547034
000170 0e 8e a8 bf 4a d7 9f bf 4a 25 55 bf 4c 2d 32 3f
       -1.3168352 -1.2487576 -0.83260024 0.6960037
000180 81 91 de 3e 65 20 01 3f 47 ca f8 be 66 b5 8b bf
       0.43470386 0.50440055 -0.48591825 -1.0914733
000190 0e 0b 63 3f 62 a9 fe bf 6c 2b c5 bf 37 9e ef be
       0.88688743 -1.9895442 -1.5403876 -0.46800396
0001a0 b8 30 25 3e a0 75 19 3e da 9b 80 3e 56 4b af 3f
       0.16131866 0.14986277 0.25118905 1.3694866
0001b0 3e be d6 bf 83 02 ff bf 69 1a 4b 3c ce f6 f6 3e
       -1.6776807 -1.9922642 0.012396433 0.48235172
0001c0 ca ec 91 bc d4 45 84 bf 1d 3d 23 bd 81 e3 5f bf
       -0.017813105 -1.033381 -0.039853204 -0.8745652
0001d0 ca 72 37 3e 5d 70 35 3f a7 e4 a8 3d ff c3 dc 3c
       0.17914882 0.7087458 0.08246737 0.026948927
0001e0 c3 8c 15 c0 8b 21 1c 3e d4 f8 b1 bf f4 db 23 bf
       -2.3367164 0.1524717 -1.3904061 -0.64007497
0001f0 bf 0c 35 bf e5 f5 01 3f 33 0a dc 3e 07 12 85 bf
       -0.70722574 0.5076583 0.4297653 -1.0396127
000200 22 aa 7c 3e 8b 35 94 be c6 6f 97 be 8d a7 13 bf
       0.24674276 -0.289471 -0.29577464 -0.5767754
000210 71 f4 e8 bf 9e 83 a6 3d 2b 35 90 3e 70 e6 24 3f
       -1.8199598 0.08130573 0.28165564 0.6441412
000220 72 4f 61 bf d3 0b ed bd bd 29 89 bf 76 1b 87 3f
       -0.8801185 -0.11574521 -1.0715863 1.0555255
000230 83 a4 69 bf b4 53 34 be 5a 0d 91 bd 0f 64 01 bf
       -0.9126665 -0.17610055 -0.07082625 -0.505433
000240 1d 4f 7c bf b3 7d df be 26 99 83 bf 6f 64 61 bf
       -0.9855822 -0.43650588 -1.0281112 -0.88043875
000250 9e df 20 3f 62 b3 2c 3e 73 54 d3 3e b2 3d 27 c0
       0.6284121 0.16865304 0.41275367 -2.6131406
000260 48 40 61 bf d8 34 a1 3d 3a f5 ba bf 31 c9 fb be
       -0.8798871 0.07871407 -1.4606087 -0.49176934
000270 13 c1 83 be d1 42 55 c0 79 60 15 bf de 6c 3e bf
       -0.2573324 -3.3322031 -0.5835033 -0.7438487
000280 2a c4 e4 3e 12 68 66 bb 23 7c 48 3e 6e aa 32 bf
       0.4468091 -0.0035157246 0.19578604 -0.69791305
000290 1b eb 89 3f e1 9b 0c bf f5 7e 31 bf a4 7b fd bf
       1.0774873 -0.5492535 -0.69334346 -1.9803357
0002a0 0d 72 d7 bf 2e 5f 9c bd 09 08 89 bf d7 ef 1f be
       -1.683168 -0.076353416 -1.0705577 -0.15618835
0002b0 a9 43 fd 3d 90 5d a9 bf 00 c5 88 bd 50 06 95 be
       0.12366421 -1.3231678 -0.066782 -0.2910638
0002c0 f5 40 a9 be 2a 5c 0b 3f 33 05 f1 bf 51 25 9c bd
       -0.3305737 0.54437506 -1.8829712 -0.07624305
0002d0 95 05 46 bf 1b 57 92 3f 5c 6d 2f c0 2f 40 b8 3e
       -0.7735227 1.1432832 -2.7410498 0.35986468
0002e0 4e 4e d8 be 34 26 ae bf ae 52 06 bf 94 c3 53 bf
       -0.42247242 -1.3605409 -0.5246991 -0.82720304
0002f0 b0 da 88 bf 58 9b c3 bf 09 7f 94 bf b9 4a 5e c0
       -1.0691738 -1.5281782 -1.1601268 -3.4733107
000300 c1 a6 06 3f 3e 2d 83 bf fd 1a 83 3e 41 83 98 bf
       0.52598196 -1.0248182 0.25606528 -1.1915056
000310 61 c4 df be d1 0f b7 be 79 71 94 be 36 02 6f bf
       -0.43704513 -0.35754254 -0.28992823 -0.9336275
000320 40 53 47 bf 02 08 02 bf 0f 25 0a c0 22 6a 00 bf
       -0.77861404 -0.5079347 -2.1585119 -0.50161946
000330 b4 18 0b bf 6c 6c 8b bf 95 b3 0a 3e 03 29 33 bf
       -0.5433457 -1.0892463 0.13545068 -0.69984454
000340 de e9 c7 bf ba 5f e6 bf 3c be 16 3e d9 07 98 bf
       -1.5618246 -1.7997963 0.14721006 -1.1877395
000350 11 b9 40 bf d0 32 51 bf 7a d5 0a bf e5 e9 ca bf
       -0.7528239 -0.8171816 -0.5423199 -1.5852629
000360 91 6c 18 3f e4 b0 a8 bf fa 87 4f bf 3e c3 0a c0
       0.5954066 -1.3178983 -0.8106686 -2.1681666
000370 78 1d d2 3e a4 6b a3 bd cf f6 65 bf da f3 d9 bf
       0.41038108 -0.07979515 -0.89829725 -1.7027543
000380 6f 29 88 bf 75 c1 61 bf dd bf 65 be 4f 96 27 bf
       -1.0637645 -0.88185817 -0.22436471 -0.6546373
000390 d8 a3 2f bf a3 4c a7 c0 97 14 8f 3d 0d 8d 84 bf
       -0.6860938 -5.228105 0.06986349 -1.0355545
0003a0 6c 3c 8b be a4 69 d6 be bd c4 9f bf 30 4d 01 3e
       -0.27194536 -0.41877472 -1.2481915 0.12627101
0003b0 ea ca b8 bf cc 87 e8 be 7f 00 36 bf 6c 81 e1 3e
       -1.4436924 -0.45416105 -0.71094507 0.44044054
0003c0 4a 8d 20 c0 ad 63 f8 bd 4c 9a ff be 7e e2 fc bf
       -2.5086236 -0.12128387 -0.49922407 -1.975662
0003d0 45 3f 24 3e a5 f8 a2 bf 75 d1 bd bc 94 8e 49 bf
       0.1603976 -1.273213 -0.023171166 -0.7873318
0003e0 14 2d 62 bf bf 49 d3 be a2 73 17 c0 65 bc 94 bf
       -0.88350034 -0.412672 -2.3664327 -1.1619993
0003f0 ea 8c 0f 3f 9e e2 fb bf 52 92 0b c0 d7 d1 67 bf
       0.5607439 -1.9678533 -2.1808057 -0.90554565

pi.pi.2.bias f4 [256]
000000 88 f1 24 be 2e 1e 4b bd b6 2a 9a be c4 ac 5c 3f
       -0.16107762 -0.04958933 -0.3011071 0.8620112
000010 7e cb 7b 3f 28 02 2e bf 1e 6f f6 3d 66 b9 a1 3f
       0.9835738 -0.6797204 0.12032913 1.2634704
000020 81 a2 01 bf 8f 1b 57 be 65 3f 87 bd 29 69 55 be
       -0.50638586 -0.21006607 -0.066038884 -0.20840897
000030 a7 a3 fc bd 55 b1 9e bf 44 f0 62 be 1e 35 94 3d
       -0.12335902 -1.2397867 -0.22161967 0.07236694
000040 82 69 39 bf 98 60 47 3f be 60 3a be b2 61 84 3f
       -0.7242662 0.77881765 -0.18200967 1.0342314
000050 ae 58 95 bd 25 28 b5 be c1 53 2c bf 82 f4 cb 3e
       -0.07292305 -0.3538219 -0.673153 0.39834982
000060 ae 25 a3 bd 78 c3 c9 bd 18 2d f5 bd cd 76 a9 3e
       -0.07966171 -0.09851736 -0.119714916 0.3309845
000070 3c b6 b7 3e e4 94 90 bc 37 22 30 bd a9 dd f5 be
       0.3588122 -0.017649122 -0.04300138 -0.48020676
000080 8e aa 6f be bf e0 4f 3c 59 b6 83 be c0 cc 03 bf
       -0.23404905 0.012687861 -0.25725058 -0.514843
000090 6e 17 2d 3f a7 8c 37 bf f6 0d 73 bf a7 5b 04 3e
       0.67613876 -0.71698993 -0.9494318 0.12925588
0000a0 26 af 34 bf f7 44 05 3c 69 37 bf 3d 2d 53 e3 be
       -0.70579755 0.008134118 0.093367405 -0.44399396
0000b0 65 89 dd 3d 75 57 17 be 42 01 a1 bc c8 42 19 bf
       0.108172216 -0.14779456 -0.01965392 -0.59867525
0000c0 ff c1 19 be 20 97 b3 bf aa 5e 65 be 47 f0 bd be
       -0.1501541 -1.4030495 -0.22399393 -0.3709738
0000d0 91 6f 15 be 80 b4 cc 3d c6 4f 32 3e c8 ff 5d be
       -0.1459334 0.09995365 0.17413244 -0.21679604
0000e0 0d 98 1c bf ea 1d 55 bf 16 5d 97 bf 75 60 ce be
       -0.6116951 -0.8324877 -1.1825283 -0.40307966
0000f0 ab 09 c1 bf 22 2d 92 3c 6e 33 17 bd 11 36 67 3f
       -1.5081075 0.017843787 -0.03691428 0.90316874
000100 96 9f 67 bf 11 70 72 bf 7a 15 4d bf 54 96 4d bf
       -0.90477884 -0.9470225 -0.80110896 -0.8030751
000110 bd e3 67 3e 42 88 7c be a5 8d d4 bd 30 81 54 bf
       0.22645469 -0.24661353 -0.10378579 -0.83009624
000120 93 08 67 bd 7e 59 87 bf 5a d9 4b bd 71 f3 ba bf
       -0.05640466 -1.0574186 -0.04976783 -1.4605542
000130 f5 f4 cf bd d2 1b ae be 45 4d 42 bf ae 76 12 bf
       -0.10154144 -0.340056 -0.75899154 -0.5721234
000140 1a 4b 37 bf 31 05 1c be be 5b ad be 99 66 8f bd
       -0.7159897 -0.15236355 -0.33859056 -0.07001991
000150 71 07 c9 bf a2 e4 6d bf 72 05 64 3f 60 70 3e bf
       -1.5705396 -0.9292699 0.8907081 -0.7439022
000160 a3 42 c4 be b9 0e ac bd 1a 77 84 bf ce a6 85 bf
       -0.3833209 -0.084012456 -1.0348847 -1.044153
000170 91 5b ac be 28 0c 6b 3e 83 6c ec bd cd 37 0f be
       -0.3366361 0.22953856 -0.115441345 -0.1398613
000180 a2 7c 8b bf 75 61 d8 3e 01 99 3a bf 98 90 8a 3e
       -1.089741 0.42261854 -0.72889715 0.2706344
000190 b8 c6 60 bf 4e ef 8f 3e 12 8a 1c 3e 7f 0a 9c bd
       -0.8780322 0.28112262 0.15287045 -0.076191895
0001a0 57 e8 a7 be 22 a4 28 bf b5 ef 1a bf d1 d5 e5 be
       -0.3279445 -0.65875447 -0.60522014 -0.4488969
0001b0 70 ba 1f 39 53 a8 d5 bc fe 3f 46 bf fd 7e 10 3f
       0.00015232875 -0.02608124 -0.77441394 0.5644377
0001c0 3a e9 0a be 19 66 ab be 0e 06 be bd f6 bd 62 bf
       -0.13565531 -0.33476332 -0.092784986 -0.8857111
0001d0 25 60 58 bf 05 a9 63 bf 7f 8a 8c be 08 e2 4c 3f
       -0.84521705 -0.8892978 -0.27449414 0.80032396
0001e0 09 b5 04 bd e6 59 5c 3d 32 ce 45 bf c9 0f dc bf
       -0.03239921 0.05379667 -0.77267754 -1.7192317
0001f0 45 20 fc 3c 38 74 82 bd 41 f0 3f bf 3d ce 47 bd
       0.030777106 -0.06369823 -0.74975973 -0.04878067
000200 cd c8 d5 3e 73 41 66 bd d5 00 80 bf 4f c6 f3 be
       0.4175476 -0.05621476 -1.0000254 -0.47612235
000210 12 c2 94 be 78 f4 34 bf 8e d3 7a bf 17 7c 98 be
       -0.29054314 -0.7068553 -0.97979057 -0.29782173
000220 d7 11 e5 bd 02 2b 7c bf 3a b8 cd bd 1c a2 67 3f
       -0.11185043 -0.98503125 -0.10044904 0.90481734
000230 98 b9 46 be c3 73 81 3e 3f ad ba bd 06 2f a0 be
       -0.19406736 0.25283632 -0.09115075 -0.31285876
000240 d8 ca b7 3e 9a b3 0b 3e 39 5e 2d bf 52 d6 70 3f
       0.35896945 0.13642731 -0.677219 0.94077027
000250 ec 81 4b bf f4 e4 0a bd d0 63 eb bd 5a e2 9d bd
       -0.7949512 -0.033909753 -0.11493647 -0.07709189
000260 58 3a ac be d0 4f 9b bd 21 43 a7 be 0b 2c 5f bf
       -0.33638263 -0.075835824 -0.32668403 -0.8717658
000270 1e 11 39 bf 9c ae 46 3c 6d 41 90 bc 4a 93 ea bd
       -0.72291744 0.012126591 -0.017609322 -0.114538744
000280 a3 2a 75 3f 2f fa 04 bf b7 ba 7f bd e2 21 a4 be
       0.95768183 -0.5194425 -0.062433925 -0.320571
000290 f4 0c e4 bf 7c 5a 8f 3e c5 9e 0c bf a2 03 98 3f
       -1.7816453 0.27998722 -0.54929763 1.1876109
0002a0 cf 49 48 bf 58 7f 62 bf 27 5e 72 bf 0b 3d 40 3e
       -0.7823762 -0.8847556 -0.94674915 0.18773286
0002b0 1e 83 35 bf 04 fd 36 bf 78 f4 b8 3b 75 7c 1a bf
       -0.70903194 -0.7147982 0.0056443773 -0.60346156
0002c0 c5 a3 c1 bd 4a 66 96 bd 1d c7 22 3f ea 91 bc be
       -0.09455065 -0.07343729 0.6358507 -0.36830074
0002d0 0d 5f e1 3d ff cf 05 3d e1 9c 0a bf 81 c2 a6 3e
       0.110044576 0.032669064 -0.5414563 0.3257027
0002e0 71 20 c4 be 68 1c 8b be d4 53 34 bf a6 5a 90 bf
       -0.38306 -0.2717011 -0.7044041 -1.1277664
0002f0 ec a7 fe 3c 7a ff ab 3e f5 54 ee bd 24 93 00 bf
       0.03108593 0.3359335 -0.11637298 -0.5022452
000300 4f b5 93 be ad 12 92 bc 86 c1 3c be f8 0a 8d 3e
       -0.28849265 -0.017831171 -0.18433198 0.2754743
000310 8f 0a 89 bd f2 7c 35 be bf 49 5c 3f fb f1 18 be
       -0.06691467 -0.17723444 0.8605003 -0.14936058
000320 24 81 33 bb b5 18 a8 bf e3 b5 60 bf 86 b3 83 bd
       -0.0027390206 -1.313254 -0.8777754 -0.06430726
000330 3c e6 c1 bd f2 3b e7 be 4e ec 7e bd d1 98 43 bf
       -0.09467742 -0.45162922 -0.062237076 -0.76405054
000340 79 a2 db 3d 1a 6b 66 be 7c 97 96 bd bb 12 29 be
       0.107243486 -0.22501794 -0.07353112 -0.16511051
000350 12 8a a7 bd 88 9d 44 bf 92 97 62 3e d0 50 19 3f
       -0.08180632 -0.76802874 0.22128132 0.59888935
000360 b7 8c 5a be a4 9d 9e bf 08 6f 45 3f 6c 7d d0 be
       -0.21342741 -1.2391858 0.77122545 -0.4072069
000370 f7 b0 05 be 18 7a a2 be 91 cb ae 3e d7 39 8f 3e
       -0.13055788 -0.31733775 0.34139684 0.27973816
000380 a1 82 8e bc 72 df 47 be 5a 50 68 bd f0 5e ac be
       -0.017396273 -0.19518831 -0.056717254 -0.33666182
000390 cd b8 66 be b4 56 5d 3e 72 97 95 bf a9 dc f7 3e
       -0.22531433 0.21615106 -1.1686842 0.48410538
0003a0 24 6e b7 be cc 61 82 3c e7 a2 17 bf e9 11 44 bd
       -0.35826218 0.015915774 -0.59232944 -0.047868643
0003b0 c5 62 2a be 8d fc d6 3b 7f 05 2b be 1a 87 1f bd
       -0.1663924 0.006560868 -0.16701315 -0.038947202
0003c0 41 a9 e7 bc c0 0f 43 be 7e 5c a9 bd 68 93 57 bd
       -0.028278949 -0.19048977 -0.082695946 -0.052630812
0003d0 e2 23 b2 3e 49 aa 93 bf 90 a9 cc 3e 2a b8 2c bf
       0.34793 -1.1536342 0.39973116 -0.6746851
0003e0 22 52 e2 3c 47 30 f7 be 65 1f 89 bf d3 50 b0 be
       0.027627055 -0.4827902 -1.0712706 -0.34436664
0003f0 45 79 a8 bc 88 2d 9d bd 5e 22 1d bf 8e 27 3f be
       -0.020565638 -0.076747 -0.61380565 -0.18667433

pi.pi.4.weight f4 [4, 256]
000000 1b ae 4a 3d c9 9a 6d bd c9 41 63 be d9 e8 49 be
       0.049482446 -0.058008943 -0.22193064 -0.1971773
000010 0c c1 8f 3c 65 3d df be 7e c6 84 be e8 62 d0 3c
       0.017548107 -0.43601528 -0.25932688 0.025437787
000020 c9 de 2c 3f 25 8c 06 bf d6 99 11 bd 76 27 b1 3d
       0.67527443 -0.52557594 -0.0355471 0.08650105
000030 ed 89 2b bd 84 ed 42 be 30 a1 99 3d 14 2f 61 3d
       -0.041879583 -0.19035918 0.07501447 0.054976538
000040 b9 71 90 3d f8 d9 ab bd 09 2e 1f 3f 8f c4 f4 bc
       0.07052941 -0.083911836 0.6217962 -0.029878883
000050 3d 5d ba bc 92 a8 d6 3d b9 5e a3 3e de 0b 31 bd
       -0.022749538 0.10481371 0.31908205 -0.043224208
000060 34 5b 44 3d 8a c2 af 3c 45 3f da be dd 00 31 3d
       0.04793854 0.021455068 -0.42626396 0.043213714
000070 d2 a9 83 3d 4d 05 21 bd b1 d5 d2 3c ff 89 9e 3f
       0.06428875 -0.039311696 0.025736662 1.2385863
000080 b8 03 9f 3e 1a cc a8 3f 4d d7 13 3d ed fc e9 bc
       0.31057525 1.3187287 0.036094 -0.028562987
000090 68 66 9a bc 6e 52 eb bc 0c b2 53 3f a1 50 38 3d
       -0.01884766 -0.028725829 0.8269355 0.04499877
0000a0 2e 68 76 3f 4b e4 67 bd e5 8e 1a bd 25 4d cd bc
       0.96252716 -0.0566142 -0.03773393 -0.0250612
0000b0 ae ae 79 be 7b 54 4d 3e cf bf c7 3d f2 85 f1 3c
       -0.24383041 0.20051758 0.097533815 0.029482815
0000c0 7b 84 5c 3d 27 c0 6a 3f 61 85 dc 3e 60 ec d8 3e
       0.05383728 0.9169945 0.4307051 0.4236784
0000d0 74 44 9f bd c9 e7 ce 3d cd 09 8c bb 85 f4 37 3f
       -0.07776728 0.10102803 -0.0042736293 0.7185748
0000e0 e8 e2 0d 3c 92 74 af 3b 9d cf 5e 3d 6d 72 a1 3e
       0.008660056 0.0053544724 0.054397214 0.31532612
0000f0 82 2c eb bc 20 16 b1 3c 57 ea f9 bc 31 c7 7b bd
       -0.028707746 0.021616995 -0.03050725 -0.06146926
000100 7c bd 45 bf ff 62 81 3d 88 23 e3 3f 03 27 09 3d
       -0.77242255 0.0631771 1.7745218 0.03348447
000110 3f 86 51 bc 53 bb 5c 3e 30 2f 16 3e 70 d2 a6 3d
       -0.012788354 0.21555834 0.14666438 0.081456065
000120 99 66 a8 bd b4 42 be 3d 6a 26 07 3d 41 ae 0d 3d
       -0.08222694 0.09290066 0.03299562 0.03459001
000130 91 00 ca bc c1 13 e3 be fe 3a 96 bd 87 e5 cf be
       -0.024658473 -0.4435101 -0.073354706 -0.40604803
000140 ff 2a 07 be 5f d1 73 bd bc 6c d1 bd 0d e4 ef bc
       -0.13199995 -0.059525844 -0.102258176 -0.029283548
000150 58 3c 02 be 0d ae 88 3e 18 1d 05 3e e7 68 29 3f
       -0.12718332 0.2669529 0.1299938 0.66175693
000160 31 95 ef bd 57 0e a0 bc 91 9b d7 bc 75 e5 3e be
       -0.11698378 -0.019538088 -0.026319297 -0.18642218
000170 ce 9b 65 3d 4f 69 64 3e 43 ba ca 3c 0a fa 00 3e
       0.05605679 0.22305797 0.02474702 0.12595382
000180 99 9a 48 3e 46 59 de bd 03 26 5c 3e 0c 5f cd bd
       0.19590224 -0.10856871 0.21498875 -0.100278944
000190 ff 90 fa bc 18 77 b3 3d 68 81 ac 3e 33 b6 a9 bd
       -0.030586718 0.0876295 0.3369248 -0.08286705
0001a0 90 d8 a0 3f 88 43 ce 3c 99 e4 96 3f 87 d8 16 bd
       1.256609 0.025178686 1.1788512 -0.03682759
0001b0 ac 4c a5 3e ae 4f 80 3d cc d0 b8 be e4 76 49 3e
       0.32285058 0.06265198 -0.360968 0.1967426
0001c0 80 68 0d 3d 8f f4 bb bd 32 07 0d 3d f2 96 ce be
       0.034523487 -0.09177505 0.03443069 -0.40349537
0001d0 b7 a2 18 be e5 46 72 be 71 e6 3f 3f 8c f3 29 3d
       -0.14905821 -0.23659857 0.74961 0.04149203
0001e0 96 cd a4 3d ef ee 57 bf c3 52 6e 3e d3 3b 52 3d
       0.08047025 -0.8434896 0.23273759 0.051326584
0001f0 cf f9 0d bf c6 6c fa 3e 66 c0 3a 3f 6e ba 0e bd
       -0.554593 0.48911113 0.72949827 -0.034845762
000200 00 ab 39 3e 15 17 5f bc 23 a3 2b 3e aa d0 30 be
       0.18131638 -0.013616343 0.1676145 -0.17267099
000210 a4 59 6b 3e ba 95 f7 3d 79 2f 94 3d 3f ac 04 bf
       0.22983414 0.12089105 0.07235617 -0.51825327
000220 30 a0 f4 bd 8b b4 d7 bc eb 2d 1b 3d ff 75 0f bd
       -0.11944616 -0.026331207 0.037885588 -0.03502464
000230 7a 67 3c 3e a2 58 43 bd 4b bd 18 bd 8b c7 50 3e
       0.18398848 -0.04769195 -0.0372899 0.2038862
000240 16 72 a4 bd ef 22 ed 3e ed 9b 3b 3e 6d e8 80 bc
       -0.08029573 0.46315715 0.183212 -0.01573583
000250 74 60 3e 3c 59 e1 3b 3d dd 9d f7 3d 3e bd 84 3d
       0.011619676 0.045869205 0.12090657 0.064814076
000260 2c cf 87 bd b5 f6 b0 3d 5a 95 ad 3e c5 bd eb bb
       -0.06631312 0.08640806 0.3390301 -0.007194253
000270 c9 37 aa be 36 1e d4 3e 3f 04 d2 bd d1 00 18 3f
       -0.33245686 0.414293 -0.10254716 0.59376246
000280 87 e6 2b 3d a5 50 10 3f 94 b6 5f 3e 79 a5 99 bf
       0.041967895 0.56373054 0.21846992 -1.2003623
000290 60 87 aa bd 06 b7 c4 bd 4c 33 4e bf a0 d8 29 3c
       -0.08326602 -0.096052215 -0.8054702 0.010366589
0002a0 07 96 04 bf df 24 99 3d 68 65 2e bf a0 41 81 3d
       -0.51791424 0.07477736 -0.68123484 0.06311345
0002b0 28 65 2b 3d 11 5f d0 3d 1a 45 63 bc e7 74 18 bf
       0.041844517 0.101743825 -0.013871456 -0.5955338
0002c0 df ce 2b bb b0 e3 e5 3b d8 24 45 3e ad 67 97 bd
       -0.0026215834 0.007015668 0.19252336 -0.073928215
0002d0 dc de 6a 3e b8 53 e7 3f 37 56 24 3f 3d 85 43 3d
       0.22936577 1.8072424 0.64194053 0.047734488
0002e0 60 bd ff bc 6a e5 87 bd 43 5b 44 be f2 36 c3 be
       -0.03121823 -0.06635554 -0.19175439 -0.38127857
0002f0 91 1d 2b be 40 e1 ba 3e 9a 29 be be 3a 24 31 3d
       -0.16710497 0.36499977 -0.37141114 0.04324744
000300 b2 dc 8d bf 83 d3 df bc fc 86 9c 3d 74 fa 1f be
       -1.1082976 -0.027322536 0.07642934 -0.15622884
000310 1d 9f 93 bc 8a 26 e0 bf 35 c7 f9 3d e4 05 1e be
       -0.018020207 -1.7511761 0.12196199 -0.15431935
000320 0d 52 6b bd 70 a0 d7 3d 68 c6 e4 3e 51 6e 95 bc
       -0.057451297 0.10528648 0.44682622 -0.01824108
000330 06 96 fd bc eb f0 15 be ca f3 1a 3d c4 cf 9d bf
       -0.030955326 -0.14642684 0.03783015 -1.232903
000340 2d 7e 18 bd e4 dc 90 bd 74 f8 5c 3c 77 ca 2b bf
       -0.037229706 -0.070733815 0.01348697 -0.6710581
000350 51 2b 49 3d 69 6e 1c be cb 53 5a bd fc 61 21 be
       0.049113575 -0.15276493 -0.053302567 -0.15760034
000360 97 11 d6 3d 25 b2 d4 bd 46 b1 99 3d 83 6a 59 bf
       0.10452574 -0.10385541 0.07504515 -0.8492815
000370 cd 74 df be e5 00 e2 3d b5 af f7 3c f5 d7 7b bd
       -0.436438 0.11035327 0.03023515 -0.06148525
000380 de 57 2a 3d 17 71 4e ba b8 1a c1 3c e3 18 13 be
       0.041587703 -0.0007875128 0.02357231 -0.14364962
000390 b0 bb 15 be 36 fe 9c 3d 77 31 84 3a 95 13 87 3d
       -0.14622378 0.076656744 0.0010085542 0.06595532
0003a0 f2 1f 95 bf a6 10 20 bd b6 ba c5 bd 0b fc 41 3e
       -1.1650374 -0.039078377 -0.09654753 0.18943803
0003b0 1e df 49 3d 2c e0 66 bd 10 e4 37 3c c3 81 86 bb
       0.049285047 -0.05636613 0.011223808 -0.0041048243
0003c0 4d bd 58 3b 3b 7d 9e 3f 6b b0 19 3d 93 01 72 3d
       0.0033071816 1.2381967 0.03752176 0.059083533
0003d0 e1 e6 bb 3d cf 49 2a 3c be f5 21 be d5 c5 95 bf
       0.09174896 0.010393574 -0.158164 -1.1700999
0003e0 c1 b8 42 bd 62 b7 11 3e e7 ce 62 3c 2b e3 19 be
       -0.047539476 0.14230111 0.013843275 -0.15028064
0003f0 c3 dc 03 3e b0 36 e0 3e 81 89 d9 3d 10 3e 75 3f
       0.12877183 0.43791723 0.1062193 0.95797825

pi.pi.4.bias f4 [4]
000000 1d 93 1a be 1f 7f 88 3e 3c 6c 62 be 0b 0e 8f bf
       -0.15095182 0.26659486 -0.221116 -1.117616

q1.q.0.weight f4 [256, 32]
000000 89 44 80 3e 8b 4b 01 bf 80 e6 8e 3e d6 31 a0 3e
       0.25052288 -0.50505894 0.27910233 0.31288022
000010 44 e7 9c bf 59 48 24 3f 36 03 77 3e 32 7a a0 bf
       -1.2258077 0.64172894 0.24122319 -1.2537291
000020 aa 13 d5 bd 2d 60 a0 3e 1e a0 0e bf 6f 15 35 3f
       -0.10404141 0.31323376 -0.5571307 0.7073583
000030 7f d7 fc be 20 74 9a be 91 da 3e bf 92 e2 8e be
       -0.4938316 -0.3016672 -0.74552256 -0.27907234
000040 72 84 9e 3f d5 24 a7 be 8a 57 ec be 3a 74 06 bf
       1.2384169 -0.32645288 -0.46160537 -0.525211
000050 5a 60 a2 bf cd 89 92 3d 85 24 06 3f 5a 5a 94 3f
       -1.2685654 0.0715519 0.52399474 1.1590073
000060 16 17 21 3d 1a 1a fc ba 44 7b 27 3f 99 a5 8e 3f
       0.039328657 -0.0019233853 0.65422463 1.1144286
000070 10 a3 83 bf 19 9d 97 3c 7c af 5d bd d0 bc 52 bd
       -1.0284138 0.018507527 -0.054122433 -0.051449597
000080 c2 40 06 bf 15 ff a3 be 67 af 02 3f 27 be 63 3f
       -0.5244256 -0.3203055 0.5104889 0.88962024
000090 04 3c f0 bf 9d dd 92 3d 69 1a 5a 3f 8e fe ee bf
       -1.8768315 0.07171176 0.8519655 -1.8671434
0000a0 5f 88 33 3e f7 57 56 3f d4 ae 55 bf 13 c8 8d 3c
       0.1753249 0.83727974 -0.8346989 0.017307317
0000b0 5c 7b be bd c1 05 5d 3c f3 02 09 bd d1 50 aa bd
       -0.09300873 0.013490141 -0.03345008 -0.08316196
0000c0 a1 93 10 bd 2f e9 47 be 05 c6 36 be 15 6e 3e 3e
       -0.03529704 -0.19522546 -0.17848976 0.1859668
0000d0 7f 1e 89 3e eb 18 3c be a2 8b 80 be 82 1b 49 bf
       0.2678108 -0.1836888 -0.2510653 -0.785576
0000e0 a8 ff 30 be 66 ca 8d bf f5 fc ad 3f 37 5b b6 3f
       -0.17285025 -1.1077392 1.3592821 1.4246587
0000f0 65 42 6c 3f b8 6c 06 bf 14 b6 1f bf f5 73 33 3e
       0.9228881 -0.5250964 -0.62387204 0.17524703
000100 53 45 e5 be fd d2 64 3f f5 6d 0d be 0d 1d e9 bf
       -0.44779453 0.8938444 -0.13811477 -1.821199
000110 ff 1e ab 3f 9e 72 99 bd 25 8b 2a 3f 96 9d 1f 3f
       1.3368834 -0.074925646 0.6661857 0.6234983
000120 3a ce 9b 3e c5 39 82 3e d8 95 1a be 88 19 a7 be
       0.30430776 0.254347 -0.15096223 -0.32636666
000130 fe f7 f2 3e 70 be 6a be 81 24 56 bf 94 35 4c 3e
       0.47454828 -0.22924209 -0.8364945 0.19942313
000140 d9 6f 86 be 90 3c 83 be df 1c 5d 3e 9d 9b ef be
       -0.26257208 -0.25632143 0.21593045 -0.4679841
000150 07 63 60 bf 39 44 8b 3e ea 55 70 be db 43 ec be
       -0.87651104 0.27200487 -0.23470274 -0.4614552
000160 1f f1 d2 be ea d1 07 40 69 c0 35 be a8 b9 6d bf
       -0.41199586 2.1221871 -0.1774918 -0.92861414
000170 e2 18 1c 3e 7d 43 8a 3e 77 5a 46 bf a5 cf e8 3d
       0.15243867 0.27004614 -0.7748179 0.1136773
000180 04 89 dd 3f 45 08 14 bd b7 00 47 bf 40 25 fd bf
       1.7307439 -0.0361407 -0.77735466 -1.9776993
000190 28 40 4e be bc 78 a8 bd 8b 1a bd c0 dc c3 c1 bf
       -0.20141661 -0.08226153 -5.90949 -1.5137897
0001a0 2e 59 be 3f e9 89 36 3f f1 64 2f bf 83 50 49 3e
       1.4870965 0.71304184 -0.685134 0.19659619
0001b0 94 50 51 be d9 6d 6a bd 3e c8 36 be 2e 5b d6 3e
       -0.20440894 -0.057233665 -0.17849824 0.4186644
0001c0 e9 16 99 3e 5d d5 4c 3d f3 0a b7 3d 63 31 0a 3e
       0.29900292 0.050008167 0.08937635 0.13495402
0001d0 c0 38 f5 bc 98 fa f5 3e ec 82 1a 3e 3a bd 91 3e
       -0.029934287 0.4804275 0.15089005 0.2846468
0001e0 7c 7f 0b 3e 63 c0 b7 3e 4c aa 4d bc 0c f2 83 bc
       0.1362285 0.35888967 -0.012552809 -0.016106628
0001f0 a0 e0 52 3e 48 dd 00 be 17 0e 0f bf 2a f0 8f bb
       0.205935 -0.12584412 -0.55880874 -0.0043926435
000200 60 2e 36 bf ab f1 62 be 46 e4 12 3f 55 48 10 be
       -0.7116451 -0.22162502 0.5737957 -0.14090092
000210 25 69 ee 3d 30 1e 6a 3f 86 3c 7d 3e 61 fb a9 be
       0.116411485 0.9145231 0.24730119 -0.331996
000220 87 0e 48 3d 55 6c c4 be a1 4b a8 3e db 78 04 3f
       0.04884198 -0.383639 0.328702 0.5174691
000230 53 8e 34 bd 74 b0 df 3d 52 c4 e1 3f 32 c2 03 40
       -0.044081043 0.10922328 1.7638037 2.0587277
000240 8d 01 9e 3f 72 3e ce bc 36 82 66 bd 86 9b 3d bd
       1.2344223 -0.02517626 -0.056276523 -0.046290897
000250 7e e0 ea 3f 18 61 00 40 69 c3 86 3f 14 1a 4c 3f
       1.834976 2.0059261 1.0528384 0.7972729
000260 40 22 d6 bd f3 16 08 3f 6a a6 14 3f e6 64 4c 3f
       -0.104557514 0.5316002 0.5806643 0.7984146
000270 21 8c 62 be 27 02 85 be 2e ad 4d 3e d0 2c 1a be
       -0.22123767 -0.25978205 0.20085594 -0.15056157
000280 69 ad 90 3e d6 c2 b1 bf 86 d7 8e 3e e0 65 95 3f
       0.282573 -1.3887584 0.27898806 1.1671715
000290 c8 16 35 c0 a6 91 c0 3f d0 ab ab 3e 73 e7 83 bf
       -2.8295155 1.5044448 0.3352952 -1.0305008
0002a0 d9 49 3b be 79 4c 8b bf ab fd 91 3f 37 ee 80 bd
       -0.1828989 -1.0882713 1.1405538 -0.06295436
0002b0 b4 18 3d 3e 92 eb b6 bd 01 3b 08 3f 40 39 90 bf
       0.18466455 -0.0893165 0.5321503 -1.1267471
0002c0 7c 8c b4 bd 27 f5 6a bd 84 6a 83 bd 4c d1 ad bc
       -0.08815858 -0.0573627 -0.064168006 -0.021217965
0002d0 b5 e3 2c 3f 01 42 88 bf c7 9f 5b bd 33 d4 15 3e
       0.67534953 -1.0645143 -0.053619172 0.14631729
0002e0 49 7f 1e 3f ed 71 8c bf ae a0 45 40 ef 07 db bd
       0.6191297 -1.0972267 3.087932 -0.106948726
0002f0 d8 aa 23 3e b3 f0 64 bf 3b f9 9a 3e b8 5f fb bd
       0.1598314 -0.8942978 0.30268273 -0.12274116
000300 b3 c8 2d bf ad 4f cf 3e d6 8f cb be 47 81 07 be
       -0.6788437 0.40490475 -0.39758176 -0.13232909
000310 1e 5e fe 3e 50 05 5b 3f 21 1a 36 bf 73 cd b1 3d
       0.4968118 0.8555498 -0.7113362 0.086817645
000320 06 fa c8 3e 1e cc 00 c0 f1 65 01 40 31 cd 83 bd
       0.39253253 -2.0124583 2.021847 -0.064356215
000330 fb e3 1a 3e b0 65 0c be 07 51 c5 3f e9 e1 13 c0
       0.1512603 -0.13710666 1.5415353 -2.3106635
000340 3d 59 dc 3f bb b3 80 3d 59 bc 2a be d3 c9 10 bd
       1.7214733 0.06284281 -0.16673411 -0.035348725
000350 25 bd c0 3f 34 27 33 c0 91 40 e8 3f 8e 97 44 bf
       1.5057722 -2.7992678 1.8144704 -0.76793754
000360 14 6a 75 3e 85 78 fa 3e 53 c9 57 bf fc 86 ad 3e
       0.23966247 0.48920074 -0.8429157 0.33892047
000370 b6 c4 ce be 33 e2 d1 bd a6 66 5f be b1 b5 4c bd
       -0.40384454 -0.10248222 -0.21816501 -0.049977962
000380 fe b5 04 bf 23 a9 a3 3d 4e 0d 9b bd 62 1f 3e bf
       -0.518402 0.07991245 -0.07570897 -0.74266636
000390 cb 24 8a bf b2 ce e6 bd f3 c6 05 3e 24 ba f4 be
       -1.0792478 -0.11269893 0.13064174 -0.47798264
0003a0 a7 a8 0a 3f 40 b5 76 3e 99 aa f4 be 81 ec 27 3f
       0.54163593 0.24092579 -0.47786406 0.6559525
0003b0 be 31 c6 3e 1b b6 01 3e 9e 05 2e bc d7 23 77 be
       0.38709825 0.12667124 -0.010621456 -0.24134766
0003c0 9f f7 a5 be 3a 31 23 3e 5d 90 45 3d 3c c9 ba bc
       -0.32415482 0.15936747 0.04823338 -0.022801034
0003d0 4e 5e 4b bd 1d a7 a8 be 40 52 68 be 6f 02 11 be
       -0.049650483 -0.32939997 -0.22687626 -0.14161085
0003e0 0a 14 6b 3f d4 f6 f6 be aa 47 cb bf 1a 92 ec 3e
       0.9182745 -0.4823519 -1.5881245 0.46205217
0003f0 fb f3 48 be ef 8a b3 bd dd 04 8c 3c 98 7c 37 3e
       -0.19624321 -0.08766734 0.017092163 0.17918622

q1.q.0.bias f4 [256]
000000 24 f7 5e c0 c5 38 3b bf 8e 30 5f c0 2d 69 0a bf
       -3.4838343 -0.731335 -3.4873385 -0.54066736
000010 1f ad 7e c0 2d aa d8 bf 90 07 70 c0 70 b5 bc bf
       -3.9793165 -1.6926934 -3.7504616 -1.474287
000020 cc 2b 76 c0 f3 74 1a be 14 09 8b c0 4e ff dd bf
       -3.8464231 -0.15083675 -4.344858 -1.7343538
000030 59 91 54 c0 9a a3 62 3f 4a 48 73 bf d8 65 55 c0
       -3.3213713 0.88530886 -0.9503218 -3.334341
000040 d8 fc 06 bf 58 de 5f bf 3d 79 74 c0 f8 91 52 c0
       -0.5272956 -0.87448645 -3.8198998 -3.2901592
000050 87 37 4a c0 d5 49 6a 3f 0c 02 b9 bf 82 3d 6b c0
       -3.1596391 0.9151891 -1.445375 -3.6756291
000060 aa f2 21 c0 55 92 be bf 66 3a a3 c0 18 07 ad 3f
       -2.530436 -1.4888407 -5.1008787 1.351779
000070 96 21 7b c0 f9 98 ef 3f eb c9 0f c0 65 90 d3 bf
       -3.923925 1.8718559 -2.246699 -1.6528441
000080 f7 70 fc bf d1 a2 74 3f b3 0d 63 bf 3d 3d 19 c0
       -1.9721974 0.9556094 -0.8869278 -2.3943627
000090 35 be 2b c0 23 8e 56 c0 02 6c 05 bf 28 9f 2a c0
       -2.6834843 -3.3524253 -0.5211793 -2.6659641
0000a0 7a 18 25 c0 d3 6e ab bf 5e e6 c4 bf dd 66 46 c0
       -2.579619 -1.3393196 -1.5382802 -3.1000283
0000b0 85 55 51 c0 0e ba ed bf c7 46 89 c0 57 09 88 3f
       -3.2708447 -1.8572404 -4.28989 1.062785
0000c0 7c f4 80 c0 62 76 ed 3f b2 5b 95 bf 22 b6 84 c0
       -4.0298443 1.8551753 -1.1668608 -4.147233
0000d0 4f 5e 43 3f 0d 65 0a c0 aa c8 e4 bf 84 84 4c c0
       0.7631578 -2.1624177 -1.7873738 -3.195588
0000e0 ac a4 91 c0 91 b6 6d bf c7 71 3b c0 7e b3 a1 c0
       -4.5513515 -0.928567 -2.9288194 -5.0531607
0000f0 5a a3 68 c0 aa 3f 82 bf 1a 61 72 c0 75 3b 2c c0
       -3.6349702 -1.0175679 -3.7871766 -2.691129
000100 b7 a8 ba bf db fd 12 c0 16 e2 84 c0 20 a7 3c c0
       -1.4582738 -2.296744 -4.1525984 -2.9477005
000110 8b 7d 82 c0 2d a1 2c 40 08 60 80 c0 9f f8 34 c0
       -4.077825 2.6973374 -4.0117226 -2.8276746
000120 d6 42 24 3e 7e e2 87 bf fd d5 6c c0 00 a9 6e c0
       0.16041121 -1.0615995 -3.7005608 -3.729065
000130 52 4f 99 be 12 a0 22 c0 b4 bb 5f c0 3f aa 42 c0
       -0.2994333 -2.54102 -3.4958315 -3.041641
000140 f6 3f 1c c0 52 89 39 c0 fb 4d 6f c0 77 d1 18 c0
       -2.4414039 -2.8990064 -3.7391346 -2.3877847
000150 89 5f 84 c0 75 85 0d c0 c5 7c 24 c0 ca 32 1b c0
       -4.136662 -2.2112706 -2.5701153 -2.424975
000160 cc 19 79 c0 ba 68 2b c0 fd f4 22 c0 93 76 16 c0
       -3.8921995 -2.678267 -2.546203 -2.3509872
000170 6b 2b 0c c0 f3 15 08 bf 9c 30 3f c0 be 79 d3 bf
       -2.19015 -0.5315849 -2.987342 -1.6521528
000180 4a b2 90 c0 cc d5 b0 bf f5 17 64 c0 63 18 20 c0
       -4.521764 -1.3815246 -3.5639622 -2.5014884
000190 4b d1 c3 c0 e2 4d 0c 3f 16 69 7a c0 e4 50 f8 3f
       -6.1192985 0.5480634 -3.912664 1.9399686
0001a0 13 6a 92 c0 cb e4 64 c0 79 9c d7 bf 95 3f de bf
       -4.5754485 -3.5764644 -1.6844627 -1.7363154
0001b0 97 93 56 40 dd d0 61 c0 0d ed 36 c0 96 b3 6f c0
       3.3527582 -3.528373 -2.8582184 -3.745336
0001c0 90 ab 6a 40 27 66 74 c0 84 28 16 c0 e2 9e 8e c0
       3.6667213 -3.818735 -2.3462229 -4.456895
0001d0 9a 5b 52 c0 cb 8d 36 c0 2b fc 8a c0 8f f5 39 c0
       -3.286841 -2.8524044 -4.343282 -2.9056127
0001e0 3f 7e 2f c0 f1 ab 3f c0 a2 25 e7 3f f5 e2 40 c0
       -2.7420805 -2.9948695 1.805836 -3.0138524
0001f0 80 ee 96 c0 dd f7 2a c0 0f fe 20 c0 97 f8 1d c0
       -4.716614 -2.6713784 -2.5155065 -2.4682977
000200 7b 16 e8 3f 28 ca df bf 28 a6 92 bf 48 70 41 c0
       1.813186 -1.7483568 -1.1456957 -3.022478
000210 5a 32 93 bf 4a 0b 61 c0 f8 25 86 c0 4c df 31 c0
       -1.1499741 -3.516314 -4.192135 -2.779254
000220 19 99 00 40 bf 24 9f c0 aa 67 84 c0 4d d3 c6 bf
       2.0093443 -4.9732356 -4.1376543 -1.5533234
000230 ab 97 1f c0 2c 01 05 c0 4d 10 01 c0 74 42 40 c0
       -2.493632 -2.0781965 -2.01662 -3.004056
000240 c5 6e b7 bf 43 d6 24 c0 cc 06 9d 3f bd a6 81 bf
       -1.4330679 -2.5755775 1.2267699 -1.012901
000250 9f a5 7c c0 0d 36 69 c0 18 43 5c c0 af 80 97 3f
       -3.9476087 -3.643924 -3.441595 1.1836146
000260 a8 b0 8c c0 d3 ac 5e c0 76 67 81 bf a7 98 4e c0
       -4.3965645 -3.4792984 -1.0109699 -3.2280672
000270 c0 1b ad bf e1 3f f8 bf 95 76 f8 3e a9 43 9d bf
       -1.3524094 -1.9394494 0.4852797 -1.2286273
000280 6f af 67 c0 8c b7 3c c0 02 71 5a c0 98 c7 97 c0
       -3.6200826 -2.9487028 -3.4131474 -4.7431145
000290 d4 f6 f6 bf f2 d9 61 c0 9b b1 66 c0 9a 32 79 c0
       -1.9294076 -3.5289273 -3.6045902 -3.8937135
0002a0 38 cc a5 bf 6a 95 fc 3f 06 a2 48 c0 94 2a 69 c0
       -1.2952948 1.9733098 -3.1348891 -3.6432238
0002b0 50 fb 31 c0 31 58 c5 3e d8 09 ec be 79 9a f7 be
       -2.780964 0.38543847 -0.4610126 -0.4836004
0002c0 91 ba 7e c0 2c 1c 4b c0 b1 3e 82 c0 32 1c c9 bf
       -3.980137 -3.1735945 -4.0701528 -1.571173
0002d0 db d4 23 c0 36 fe 20 40 2a 1e ad c0 95 05 20 c0
       -2.5598667 2.5155158 -5.409932 -2.5003407
0002e0 58 c2 08 bf a6 c9 d7 bd ba 05 53 c0 e0 98 54 c0
       -0.53421545 -0.10536508 -3.2972245 -3.3218307
0002f0 db 1f 80 c0 da f2 7f c0 41 8d ac 3e d9 28 52 c0
       -4.0038886 -3.9991975 0.33701518 -3.2837431
000300 54 dd b7 bf 1c a2 5f c0 1c 16 1a c0 18 c9 8c c0
       -1.4364419 -3.4942694 -2.4075994 -4.3995476
000310 91 76 3f c0 7e 47 83 bf ad 1e 8a c0 e4 2d 9b bf
       -2.9916117 -1.0256193 -4.3162446 -1.212338
000320 29 66 11 c0 00 e4 36 c0 b1 57 06 c0 7f f3 38 c0
       -2.2718604 -2.857666 -2.0991023 -2.8898618
000330 48 47 2b c0 0d 7e 63 c0 30 ca 54 c0 6d 4e 69 3f
       -2.6762257 -3.5545685 -3.3248405 0.91135293
000340 c0 6c 49 c0 f8 ab 5c c0 a5 77 24 c0 1e fd 61 c0
       -3.1472626 -3.4479961 -2.5698025 -3.531074
000350 d3 e2 91 bf 43 fd 19 3f 9c a6 1c c0 83 80 12 c0
       -1.1397346 0.6015207 -2.447669 -2.2890937
000360 4a c7 d7 be 9c 2b 2a c0 b2 0f 94 c0 a6 9a dd bf
       -0.42144233 -2.6589117 -4.626916 -1.731282
000370 37 49 19 c0 f9 be 1d c0 66 07 e8 3f 8c 55 7a c0
       -2.3950937 -2.464781 1.8127258 -3.9114714
000380 79 3c b2 bf 55 27 6d c0 7e 8d e4 3f 4a 35 15 bf
       -1.3924705 -3.7055256 1.785568 -0.5828444
000390 e3 7e 0f 40 cf d4 54 c0 c6 44 44 bf 4a 75 25 c0
       2.2421196 -3.3254888 -0.7666744 -2.5852838
0003a0 ec ca f5 bf ec 90 02 40 1c f0 24 c0 9a 29 c9 bf
       -1.9202552 2.0400953 -2.577155 -1.5715821
0003b0 22 64 48 c0 18 65 1c c0 c4 f3 1f c0 b3 ea 79 c0
       -3.1311116 -2.4436703 -2.4992533 -3.90495
0003c0 9c ee df bf 6b da 2e c0 49 29 a6 bf c5 0b f1 be
       -1.7494693 -2.7320812 -1.2981349 -0.47079292
0003d0 0a d9 b6 bc a7 5c 57 3f 44 66 75 3e ab 1a 1c c0
       -0.02232029 0.8412575 0.23964792 -2.4391277
0003e0 0b ee 6d c0 c1 6f 08 c0 b9 ba 78 c0 9c 79 11 c0
       -3.717654 -2.131821 -3.8863966 -2.2730474
0003f0 bf 12 30 c0 2c 66 6b c0 2f 24 49 c0 1e 82 c0 bf
       -2.7511442 -3.678111 -3.1428335 -1.5039709
